state_dicts/weight-finetuned-sentence-similarity-run-93-aux-0.75-lr-0.0006.pth (torch, 135209 bytes, 3 tensors)

0.weight f4 [256, 128]
0	0xbda05332	-0.07828368
1	0x3b203e2b	0.0024451117
2	0xbcd4d194	-0.02597884
3	0xbd3e0a41	-0.046396498
4	0x3d7e7f83	0.062133323
5	0x3be9b1d0	0.0071317926
6	0xbd442a5b	-0.047891956
7	0x3d2537a3	0.040336262
8	0x3c98754d	0.01861062
9	0x3c06e9ab	0.008234422
10	0xbbff67e3	-0.0077943667
11	0x3d1c65af	0.03818291
12	0xbc2cc364	-0.010544632
13	0x3d19b191	0.037522856
14	0x3d2e1ab3	0.04250593
15	0xbcd416e5	-0.025889823
16	0xbca939eb	-0.0206575
17	0xbd8daa58	-0.06917256
18	0x3d8016ae	0.06254326
19	0x3da2b65c	0.079449385
20	0xbd14f4af	-0.03636616
21	0x3d38df0f	0.0451346
22	0xbd04f69c	-0.032461748
23	0x3c6e4298	0.014542244
24	0x3d1a1f87	0.037627723
25	0x3c0e71d3	0.00869413
26	0x3d7d945b	0.06190906
27	0xbd93c900	-0.07216072
28	0x3d13f6ee	0.036124162
29	0x3d4fa271	0.050692026
30	0xbdab9ec9	-0.08379895
31	0xbd9df28b	-0.07712277
32	0x3da3206a	0.07965167
33	0xbd85913a	-0.065218404
34	0x3c55f864	0.013059709
35	0xbc880cbf	-0.01660764
36	0x3cec625d	0.028855497
37	0x3db894d0	0.09012759
38	0x3d651960	0.055932403
39	0xbd4c250c	-0.04984002
40	0xbc6749d2	-0.014116721
41	0xbc7bd23e	-0.01536995
42	0x3d85253d	0.06501243
43	0x3d055550	0.032552063
44	0xbbf5d1de	-0.0075018248
45	0x3db64df9	0.08901591
46	0xbdaa5a94	-0.08318058
47	0x3cca0dc0	0.02466476
48	0x3dae83ac	0.08521208
49	0x3ca49cff	0.020094393
50	0xbd7151fe	-0.058916084
51	0xbda08f1c	-0.07839796
52	0x3d8cd9d2	0.068774834
53	0x3d0ebe13	0.034849238
54	0x3cdc1548	0.026865616
55	0x3d1d88dc	0.038460597
56	0x3c968cee	0.018377747
57	0xbd1a8358	-0.037722915
58	0xbd92a37c	-0.071600884
59	0xbabef428	-0.0014568614
60	0x3c5cd31e	0.013478069
61	0xbd31d9be	-0.043420546
62	0xbd82445f	-0.06360697
63	0x3d41ecc6	0.047344945
64	0x3cbd246a	0.023088653
65	0xbbf5c60f	-0.007500417
66	0xbb37d467	-0.0028050186
67	0x3dacb821	0.08433557
68	0x3d523339	0.05131838
69	0x3cc84ede	0.02445167
70	0x3d647acf	0.055781182
71	0x3cd7e937	0.026356323
72	0xbd58744a	-0.052845277
73	0xbd363775	-0.04448648
74	0x3cbc89f9	0.02301501
75	0xbd854939	-0.06508107
76	0x3c1638a2	0.009168776
77	0xbb24d07e	-0.0025148685
78	0x38aac868	8.14356e-05
79	0xbd21c32c	-0.03949277
80	0x3c8a70a9	0.016899424
81	0x3d687b55	0.056758244
82	0xbd96ac26	-0.073570535
83	0x3c90102c	0.017585836
84	0xbd616c9b	-0.055035215
85	0xbd0e79b4	-0.034784034
86	0x3d8df48c	0.06931409
87	0xbab31332	-0.0013662337
88	0xbd4f557b	-0.05061863
89	0x3d727be4	0.059200183
90	0x3d99aefc	0.07504079
91	0xbc28e7b4	-0.010309149
92	0xbdb7639c	-0.08954546
93	0xbcefa422	-0.02925307
94	0x3d40316a	0.046922125
95	0xbdada627	-0.08478957
96	0xbd692402	-0.056919105
97	0xbd5849a9	-0.052804623
98	0x3d2646b5	0.040594775
99	0x3da59c83	0.08086493
100	0xbd32fa41	-0.043695692
101	0xbd19b405	-0.037525196
102	0x3d59df95	0.05319174
103	0xbcef1556	-0.029184978
104	0x3d3138e4	0.043267146
105	0xbd84c685	-0.06483177
106	0xbd610f31	-0.05494613
107	0xbbabe28f	-0.0052455137
108	0xbbe88106	-0.007095459
109	0xbd2d60f5	-0.042328794
110	0x3d179c88	0.037014514
111	0x3db48176	0.08813755
112	0x3db83919	0.089952655
113	0x3d976054	0.0739142
114	0xbd72635d	-0.05917679
115	0xbc1a3df4	-0.009414185
116	0x3c25c2c5	0.010117237
117	0x3abcb601	0.0014397503
118	0x3d99e17e	0.07513712
119	0xbc2c893c	-0.010530766
120	0xbd76878a	-0.060187854
121	0xbc871698	-0.016490266
122	0xbaba7698	-0.0014226018
123	0x3d359c44	0.04433848
124	0xbcac1f0d	-0.0210109
125	0xbd85bb94	-0.06529918
126	0x3d8caa2b	0.068683945
127	0xbd7eca2d	-0.06220453
128	0xbdc3ebed	-0.09566484
129	0x3d926492	0.071480885
130	0xbc17d1b5	-0.009266307
131	0xbd5c0f72	-0.053725667
132	0x3d13fc62	0.036129363
133	0xbc0b50fd	-0.008503196
134	0xbcd0d06b	-0.025490006
135	0xbc295a22	-0.010336431
136	0xbcf16b37	-0.02947007
137	0xbd85133b	-0.064978085
138	0x3da236e9	0.079206295
139	0xbd933501	-0.07187844
140	0xbba843d7	-0.0051350403
141	0x3d6c5d6a	0.057706274
142	0xbc38f07b	-0.011287804
143	0x3db8d172	0.090243235
144	0x3d56ac4d	0.052410413
145	0xbd47ac52	-0.04874832
146	0x3d59a47f	0.05313539
147	0x3d86dfc6	0.0658565
148	0xbd80bcb9	-0.06285996
149	0xbb2436b9	-0.0025057031
150	0xbc138305	-0.009003405
151	0xbd4c364b	-0.049856465
152	0x3d8aa874	0.06770411
153	0xbca749d3	-0.020420944
154	0xbbe64976	-0.0070278
155	0xbd9bf486	-0.076149985
156	0x3d34247c	0.043980107
157	0x3c135660	0.008992761
158	0xbd1080cf	-0.03527909
159	0xbd6447cc	-0.055732533
160	0x3d90c54b	0.07068881
161	0x3cb60057	0.022216959
162	0xbd8af41e	-0.06784843
163	0x3d4b632e	0.049655132
164	0x3d2d460f	0.04230314
165	0xbcfbd506	-0.030741226
166	0xbd83da31	-0.06438101
167	0x3d8e927c	0.069615334
168	0xbd6b8b1c	-0.057505712
169	0x3d5a1b5d	0.053248752
170	0xbc1d965a	-0.009618366
171	0xbd7030ed	-0.05864041
172	0xbdd92d32	-0.106043234
173	0x3c8dc3f7	0.017305357
174	0x3bb89a98	0.0056336634
175	0xbb934782	-0.0044946084
176	0x3d985848	0.07438713
177	0xbd8edb2f	-0.069754
178	0x3c31e9ed	0.010858995
179	0x3d22892d	0.039681602
180	0x3cfb59fc	0.030682556
181	0xbd7db680	-0.061941624
182	0x3c2dce6e	0.010608299
183	0x3d818cac	0.06325659
184	0x3d9bf9fd	0.07616041
185	0xbd5199e3	-0.05117215
186	0xbd49c865	-0.049263377
187	0x3d310101	0.043213848
188	0xbd972058	-0.07379216
189	0xbca43410	-0.020044357
190	0x3cc4f525	0.024042675
191	0xbd161823	-0.036644112
192	0xbd013671	-0.03154606
193	0xbd0fc550	-0.03510028
194	0xbbaefc5f	-0.0053401436
195	0x3c223fc1	0.009902895
196	0x3d6f6257	0.058443394
197	0xbd3cb3ed	-0.046070028
198	0x3d537b22	0.0516311
199	0x394eaef6	0.00019710869
200	0x3cd0c846	0.025486123
201	0x3daf14d8	0.085488975
202	0xbd925fa1	-0.07147146
203	0x3db5e501	0.0888157
204	0x3dad5b6c	0.08464703
205	0x3bf50ab3	0.007478082
206	0xbd305801	-0.043052677
207	0xbdc7ae0d	-0.097499944
208	0xbd4553c2	-0.04817558
209	0x3d82c21b	0.06384679
210	0xbc8cd9cb	-0.017193696
211	0xbbdf2a87	-0.0068104896
212	0xbd4bd988	-0.049768
213	0x3dcb249a	0.099190906
214	0x3ddc17cd	0.10746727
215	0xbccea838	-0.025226697
216	0xbc2a8136	-0.010406783
217	0xbce7dd04	-0.02830363
218	0x3d13dc18	0.03609857
219	0xbdd39ac3	-0.10332253
220	0x3d8e1260	0.069370985
221	0x3d0197cb	0.0316389
222	0x3dcc5a83	0.09978201
223	0xbcacb43e	-0.02108204
224	0x3dbbcef8	0.091703355
225	0xbdcb9ce6	-0.099420354
226	0xbc169d1f	-0.009192734
227	0x3d674192	0.056459017
228	0x3cbaeae7	0.022817088
229	0xbd8d42a2	-0.06897475
230	0xbba2e90f	-0.0049716304
231	0xbd952812	-0.072830334
232	0x3ceb26a9	0.028704958
233	0xbb1ccbbc	-0.0023925146
234	0xbcdbc2d9	-0.026826309
235	0x3d24675c	0.040137634
236	0xbd16b696	-0.03679522
237	0xbd135213	-0.035966944
238	0x3ad2eecd	0.0016092897
239	0xbd4e0d44	-0.05030562
240	0xbdaf5280	-0.085606575
241	0x3d78531e	0.06062614
242	0x3cb2c737	0.021823509
243	0xbdb87d07	-0.09008222
244	0xbd4fa19a	-0.050691225
245	0xbba021e4	-0.0048868526
246	0x3d368e04	0.04456903
247	0x3d655e8a	0.055998363
248	0x3d25c5f8	0.040472
249	0x3cfa1f61	0.03053254
250	0x3bc35989	0.005961601
251	0x3dbea4d1	0.0930878
252	0xbd5e1162	-0.054215796
253	0xbd4e5731	-0.05037612
254	0xbdd2ee5b	-0.10299369
255	0x3c87bee5	0.016570518

0.bias f4 [256]
0	0x3bc9dee5	0.0061606043
1	0x3c10f84c	0.008848261
2	0x3aaf7222	0.0013385455
3	0x3d836a17	0.064167194
4	0x3d7a31bb	0.061082583
5	0xbcc9953d	-0.024607295
6	0xbd7e692e	-0.062112026
7	0x3d861b72	0.065482035
8	0xbcf39f12	-0.029738937
9	0xbd9c8640	-0.07642794
10	0xbd9aa625	-0.07551221
11	0xbdc2ee94	-0.095181614
12	0xbcc5a47b	-0.024126282
13	0xbcfb144b	-0.030649325
14	0xbd9facee	-0.077966556
15	0xbcce80e2	-0.02520794
16	0xbd9de2f2	-0.07709302
17	0xbd0d9bfa	-0.03457258
18	0x3ba42326	0.005009073
19	0x3d19b2d5	0.037524063
20	0x3c8a6943	0.016895896
21	0x3d5d015e	0.053956382
22	0x3b61d74c	0.0034460602
23	0xbdd80f85	-0.10549835
24	0xbbe5f2c4	-0.0070174653
25	0x3da63ceb	0.08117088
26	0xbd13a755	-0.036048252
27	0xbd611c04	-0.05495836
28	0xbd678884	-0.056526676
29	0xbc89c676	-0.016818266
30	0x3cb97d47	0.022642745
31	0x3cb42bdc	0.02199357
32	0x3b644450	0.0034830756
33	0x3ce112a3	0.027474707
34	0x3d1b0677	0.037847962
35	0xbd1d95bc	-0.038472876
36	0x3d86ee0d	0.06588373
37	0xbd8afc06	-0.06786351
38	0x3ab26544	0.0013610502
39	0x3d763009	0.060104404
40	0x3d252f66	0.040328406
41	0x3d547362	0.05186785
42	0xbcb7a4e3	-0.022417491
43	0xbd494020	-0.04913342
44	0x3d34a27c	0.04410027
45	0x3dbb1230	0.09134328
46	0xbde0ec52	-0.109825745
47	0x3b27b428	0.002558956
48	0x3cb99322	0.022653166
49	0xbc38f375	-0.011288513
50	0xbcc7e3fb	-0.024400702
51	0x3da1efd0	0.07907069
52	0x3d6ba2fb	0.057528477
53	0x3d91f5cc	0.0712696
54	0xbd91c390	-0.07117379
55	0x3d7bf739	0.061515067
56	0x3cf8fbc3	0.030393487
57	0x3bf1a36f	0.007374219
58	0x3c79918b	0.015232454
59	0xbccdc589	-0.025118606
60	0xbd48cb93	-0.04902227
61	0xbc65a4c0	-0.01401633
62	0xbc1e30e9	-0.009655216
63	0x3d94037a	0.072272256
64	0x3d5fc77d	0.054633606
65	0x3db93e91	0.09045137
66	0x3d822903	0.063554786
67	0xbd85d1b7	-0.065341406
68	0x3d17f4a4	0.03709854
69	0x3c4a8c6a	0.012362579
70	0xbd7c3475	-0.061573464
71	0xbdb6bf35	-0.089231886
72	0x3d776957	0.060403194
73	0xbc060b1e	-0.0081813615
74	0xbd133e73	-0.035948228
75	0x3c1bafa0	0.0095023215
76	0xbd643e80	-0.055723667
77	0xbd86cc5c	-0.06581947
78	0x3d804bd8	0.06264466
79	0x3d425458	0.047443718
80	0x3d6ed8f3	0.058312368
81	0x3d8270a1	0.063691385
82	0x3da09513	0.07840934
83	0x3bc342a7	0.0059588733
84	0x3d1212ac	0.03566234
85	0xbcc23477	-0.023706658
86	0xbb7ee52c	-0.0038893921
87	0x3d9bd811	0.07609571
88	0xbd919d5c	-0.07110092
89	0xbc169182	-0.009189965
90	0xbc4a678c	-0.012353789
91	0x3d94af9b	0.072600566
92	0x3da219ac	0.07915053
93	0x3d86da26	0.06584577
94	0x3ccbc292	0.024873052
95	0x3d620dc7	0.05518892
96	0x3d6c349a	0.057667352
97	0xbd94a136	-0.07257311
98	0x3d3dee7c	0.046370015
99	0x3cd1c953	0.025608694
100	0xbc8588ee	-0.016300645
101	0xbd2c3445	-0.042042036
102	0x3d395aa1	0.045252446
103	0x3cac0f0a	0.021003265
104	0xbdc3ae2b	-0.09554704
105	0x3d0a765f	0.033804294
106	0xbc592d22	-0.013255389
107	0xbc551b17	-0.013006947
108	0xbd27230c	-0.040804908
109	0xbd97fbf6	-0.074211046
110	0xbdcf7a0f	-0.10130703
111	0x3d8da35d	0.06915925
112	0x3b69970c	0.003564301
113	0x3d07307e	0.03300523
114	0xbc33df76	-0.01097857
115	0xbd34fcac	-0.04418628
116	0x3a11931e	0.0005553233
117	0x3d89d42f	0.06729924
118	0xbd5b8014	-0.05358894
119	0xbda8f4a1	-0.08249784
120	0xbda6e2cc	-0.08148727
121	0xbd8a2412	-0.06745161
122	0xbd6bd7eb	-0.057578962
123	0xbd92ebe2	-0.07173897
124	0xbd979fef	-0.07403552
125	0xbd869535	-0.06571428
126	0x3bf21293	0.007387468
127	0x3d667e19	0.0562726
128	0x37bf5fe2	2.2813623e-05
129	0x3d745785	0.059653778
130	0xbd98c3ec	-0.07459244
131	0x3ce5fbb2	0.02807412
132	0x3d8ed87b	0.06974884
133	0xbd8e7d85	-0.06957535
134	0x3d065111	0.032792155
135	0x3d96a0dd	0.07354901
136	0xbcc6e2c1	-0.024278047
137	0xbc9b77fb	-0.01897811
138	0xbd8f2b39	-0.06990666
139	0x3d8c1296	0.068394825
140	0xbc08fde5	-0.008361314
141	0x3d6a970b	0.057272952
142	0xbd7845c6	-0.060613416
143	0x3d94ebe4	0.07271555
144	0xbd465730	-0.048422992
145	0xbccb0357	-0.024781866
146	0x3cb2a310	0.02180627
147	0xbdb3af6c	-0.087736934
148	0x3d446ac1	0.04795337
149	0x3d91f8a5	0.07127503
150	0x3d05bd44	0.0326512
151	0xbcb71980	-0.022351027
152	0xbdb07ed2	-0.08617939
153	0xbd359f07	-0.044341113
154	0x3c419cc3	0.01181716
155	0xbd4c2db4	-0.049848273
156	0xbc932ba2	-0.017965142
157	0xbd0b4d7d	-0.034009445
158	0xbda014ec	-0.078164905
159	0x3ca1165c	0.019663982
160	0x3cec7957	0.028866453
161	0xbdb047d1	-0.08607448
162	0xbd9e6dcc	-0.07735786
163	0xbda61f44	-0.08111432
164	0xbd9f995a	-0.07792921
165	0xbd8f009f	-0.0698254
166	0xbd4e2845	-0.050331373
167	0x3d0e850a	0.034794845
168	0x3d320c8f	0.043469008
169	0x3da94b12	0.08266272
170	0x3d3a0547	0.04541519
171	0x3d024353	0.031802487
172	0xbd776fa3	-0.0604092
173	0x3d804fcf	0.06265222
174	0xbd155fde	-0.03646838
175	0xbd1a5ae3	-0.037684333
176	0xbdbe0bba	-0.092795804
177	0xbc7ae92c	-0.015314382
178	0xba5828ce	-0.00082458265
179	0xbd155277	-0.036455598
180	0xbd97cb42	-0.07411815
181	0x3d11c17b	0.035584908
182	0x3c15a7d5	0.009134253
183	0x3c7ecf76	0.015552392
184	0xbb73b515	-0.003718679
185	0x3cd0a618	0.025469825
186	0x3d837a09	0.06419761
187	0xbd9ec150	-0.07751715
188	0xbd1fec82	-0.03904391
189	0xbd110108	-0.035401374
190	0x3d935d9e	0.071955904
191	0xbc4d4108	-0.012527712
192	0xbdbcb564	-0.09214285
193	0x3b88ca01	0.0041744714
194	0x3d256000	0.040374756
195	0x3d6c6f14	0.05772312
196	0xbbf54411	-0.007484921
197	0xbb3f7439	-0.0029213561
198	0xbd44b7c4	-0.048026815
199	0xbd6673d4	-0.056262806
200	0x3caa9714	0.020823993
201	0x3cf1047e	0.029421087
202	0xbd1615d8	-0.036641926
203	0x3d27204d	0.04080229
204	0x3a1646e0	0.0005732607
205	0xbd998e98	-0.07497901
206	0xbc558b0b	-0.013033639
207	0x3d0de282	0.034639843
208	0xbd417a98	-0.047236055
209	0xbda6b05e	-0.08139108
210	0x3b4551d9	0.00301086
211	0x3d99b823	0.075058244
212	0xbcf4857c	-0.029848807
213	0xbc1b3943	-0.0094741015
214	0x3d6f9dc1	0.058500055
215	0x3d5fdc93	0.054653715
216	0xbd17628a	-0.03695921
217	0x3d66d8c0	0.056359053
218	0xbd9eb8d1	-0.07750095
219	0x3d6cf5c9	0.057851586
220	0x3d0316bf	0.032004114
221	0x3cd86bb4	0.026418544
222	0xbdb70204	-0.08935931
223	0x3d52f570	0.0515036
224	0x3da4afe1	0.08041359
225	0xbbcc25d9	-0.0062300977
226	0x3db8c6e9	0.09022314
227	0xbdac92b5	-0.0842642
228	0xbdaeb4a5	-0.08530549
229	0xbd38d8a2	-0.045128472
230	0x3ccceb54	0.025014557
231	0x3d2e9317	0.042620745
232	0xbd8b9a13	-0.06816497
233	0x3b4a85a9	0.0030902422
234	0x3c2283d9	0.00991913
235	0xbd321baa	-0.043483414
236	0xbd76c1f9	-0.06024358
237	0xbdb5b6e5	-0.08872775
238	0xbcaf49b0	-0.021397442
239	0x3d79d753	0.060996365
240	0xbd2d231e	-0.04226982
241	0x3da042c7	0.07825237
242	0xbd80e19f	-0.06293034
243	0xba8fd6fa	-0.0010974102
244	0xbcea012d	-0.028565014
245	0xbd515d9f	-0.051114675
246	0xbd723ce9	-0.05914012
247	0x3d8103cc	0.06299552
248	0xbd366e07	-0.044538524
249	0x3c3d1c44	0.011542384
250	0x3cf4fc16	0.02990536
251	0xbcfa4a3c	-0.030552976
252	0xbc7e644f	-0.015526845
253	0x3d6d8924	0.057992116
254	0xbd316437	-0.043308463
255	0xbcbb85d3	-0.02289096

2.weight f4 [1, 256]
0	0xbcd3cf6f	-0.025855748
1	0xbc277aa2	-0.010222109
2	0xbd6f2141	-0.058381323
3	0x3d621274	0.05519338
4	0xbcc62866	-0.024189185
5	0xbc21eafc	-0.009882685
6	0xbce56f14	-0.028007068
7	0x3b0126d2	0.0019706977
8	0xbbf0134d	-0.0073265196
9	0x3d15ab6c	0.036540434
10	0x3d069e59	0.032865856
11	0xbcf48c3c	-0.029852025
12	0x3c56cb70	0.013110027
13	0x3d5ec167	0.05438366
14	0x3c55cb1c	0.013048913
15	0xbd39b46c	-0.04533808
16	0xbd1cb8f8	-0.038262337
17	0x3c320b6b	0.01086698
18	0xbc3be485	-0.0114680575
19	0x3cd91ef9	0.026504027
20	0x3c550bc5	0.013003294
21	0xbd09373e	-0.03349995
22	0xbb8bb848	-0.0042639114
23	0x3be1b15a	0.006887597
24	0x3cfc1e4c	0.030776165
25	0xbb8c95c9	-0.0042903167
26	0xbd14ba17	-0.03631028
27	0xbc38760c	-0.011258613
28	0xbd31162f	-0.043234047
29	0xbc71d9dd	-0.014761415
30	0x3ca6ad60	0.020346344
31	0xbcb48e6f	-0.022040574
32	0xbb38ea62	-0.0028215875
33	0x3b4d5f71	0.0031337405
34	0xbb34b19f	-0.002757169
35	0xbd0a08cd	-0.0336998
36	0xbc41cd68	-0.011828758
37	0x3c025b4d	0.007956338
38	0x3b2d66f7	0.0026459077
39	0xbc85fcc4	-0.01635588
40	0xbd034a3e	-0.032053225
41	0x3cfdf90a	0.03100254
42	0xbc268289	-0.010162958
43	0xbad507ef	-0.0016252975
44	0xbaa733fb	-0.001275658
45	0x3d2d789d	0.042351354
46	0xbac7ca23	-0.0015242737
47	0x3d37cd7e	0.044873707
48	0x3c460df3	0.012088287
49	0xbd425bd8	-0.04745087
50	0x3d624fd5	0.055251915
51	0xbbd4036b	-0.006470134
52	0x3ad8ed47	0.0016550206
53	0x3d45b2e9	0.048266325
54	0xbc90ed7b	-0.017691365
55	0x3b961115	0.004579673
56	0xbc9abd60	-0.01888913
57	0xbc65556e	-0.013997419
58	0xbbce5b6e	-0.0062975204
59	0xbc04dd99	-0.008109474
60	0xbb636ae1	-0.0034701156
61	0xbb124bef	-0.0022323092
62	0x3a1f0313	0.0006065827
63	0xbd4643b6	-0.048404418
64	0x3d278d41	0.040906195
65	0x3d5cc139	0.05389521
66	0x3cfdfc8b	0.031004211
67	0x3be22686	0.006901565
68	0xbca9918b	-0.020699283
69	0x3a845f20	0.001009915
70	0x395a1a94	0.00020800001
71	0xbc53db5a	-0.012930715
72	0xbd30fe92	-0.043211527
73	0x3c22b746	0.009931391
74	0x3cca94a6	0.024729084
75	0x3d2e2a82	0.042521007
76	0x3cc545e2	0.024081174
77	0xbc467b45	-0.012114351
78	0x3d43e2ea	0.047823824
79	0x3d272173	0.040803384
80	0x3cff52b9	0.031167375
81	0xbcd1b2bc	-0.025597923
82	0xbb8229b3	-0.003972256
83	0xbc8507cc	-0.01623907
84	0x3d35ef9e	0.04441797
85	0xbc349802	-0.01102257
86	0x3d0378c9	0.03209761
87	0x3d58bfd2	0.05291731
88	0xbd4e6b06	-0.050395034
89	0xbd058460	-0.032596946
90	0x3c6ae757	0.014337382
91	0x3c66962b	0.014073889
92	0xbc8cd9f7	-0.017193777
93	0xbcd32cc2	-0.025778178
94	0x3ca11228	0.019661978
95	0x3b86201b	0.0040931827
96	0x3d02e153	0.031953167
97	0xbccc4119	-0.024933385
98	0x3c001cfc	0.00781941
99	0xbc7ab0d0	-0.015300944
100	0xbc559f69	-0.013038495
101	0x3c63c079	0.0139008695
102	0x3cc66546	0.024218213
103	0xbca14d3c	-0.019690149
104	0x3c5e7967	0.013578749
105	0x3c765f26	0.015037334
106	0x3d300ae9	0.042979155
107	0x3c67355e	0.014111845
108	0xbc689905	-0.014196639
109	0x3d224961	0.03962076
110	0x3b56ea42	0.0032793437
111	0xba80460e	-0.0009786503
112	0xbc3a65f6	-0.011376848
113	0x3cba4a6e	0.022740569
114	0x3c2deb8c	0.010615241
115	0x3d4678db	0.0484551
116	0xbd26c3a8	-0.040713936
117	0x3c2b6269	0.0104604745
118	0x3d2f27c2	0.042762525
119	0x3d1be3e5	0.038059134
120	0x3cf6d092	0.030128751
121	0xbceb719c	-0.028740697
122	0x3d0813da	0.033222057
123	0x3c6a5351	0.014302091
124	0x3d32c008	0.043640167
125	0x3d0c0fe6	0.03419485
126	0x3d2408b5	0.040047366
127	0xbc917018	-0.017753646
128	0xbb94ff73	-0.0045470535
129	0x3d3dc65c	0.04633175
130	0x3d4e9318	0.05043325
131	0x3d37553e	0.044759028
132	0xbd2fde79	-0.042936776
133	0x3b896d61	0.004193947
134	0x3d2ec081	0.042664055
135	0xbd3505af	-0.044194873
136	0x3c2abab6	0.010420492
137	0x3d3a96a6	0.045553826
138	0x3cc686a5	0.024234125
139	0xbd07ba5b	-0.033136707
140	0x3b540ddf	0.00323569
141	0x3d52b213	0.051439356
142	0x3cee911d	0.02912193
143	0xbc50125e	-0.012699692
144	0x3cbe1bb4	0.02320657
145	0xbcc08be3	-0.023504203
146	0x3b82a2fc	0.0039867144
147	0x3cf2862d	0.029604996
148	0x3d3db4ae	0.046314888
149	0x3c136a8d	0.008997572
150	0xba7c53d9	-0.00096255314
151	0xbc8aee0d	-0.016959215
152	0x3a8b8558	0.0010644598
153	0x3c99874e	0.018741276
154	0x3cae4b96	0.021276277
155	0xbb893f2d	-0.0041884393
156	0xbd27e7c3	-0.04099251
157	0x3d51682a	0.05112473
158	0x3c85270d	0.016253972
159	0x3c9ffcf2	0.019529793
160	0x3c85c5e1	0.016329708
161	0xbd2048c5	-0.0391319
162	0x3b9f99dd	0.004870637
163	0x3d323cd1	0.04351503
164	0xba4760ad	-0.00076056534
165	0xbba1ab68	-0.0049337633
166	0x3b1016ca	0.002198624
167	0xbd20aeb6	-0.039229117
168	0xbd2df678	-0.04247138
169	0xbc579ef3	-0.013160455
170	0xbb2c772b	-0.0026316147
171	0x3b5571aa	0.003256897
172	0xbb850e8a	-0.004060571
173	0xbcad8cd7	-0.021185322
174	0x3b0106fe	0.0019688006
175	0xbd110620	-0.035406232
176	0xbc09b7ca	-0.008405635
177	0x3cda2cd0	0.026632696
178	0x3b51c6b9	0.0032009317
179	0x3cefb568	0.029261306
180	0x3b438492	0.0029833657
181	0xbc584781	-0.013200642
182	0x377c5881	1.5040977e-05
183	0xbb2cd4b3	-0.0026371896
184	0x3bac6ecd	0.005262232
185	0x3c1f6556	0.00972875
186	0x3ad579e8	0.0016286941
187	0x3c5a3536	0.013318351
188	0xbd2d4a58	-0.042307228
189	0x387bcb50	6.0032413e-05
190	0xbcfea124	-0.031082697
191	0x3d28390a	0.04107002
192	0xbbbc0b51	-0.0057386537
193	0x3d4967e0	0.04917133
194	0xbcab498e	-0.020909097
195	0xbc34ae81	-0.011027933
196	0x3d11870f	0.035529193
197	0x3c6610af	0.014042064
198	0x3d1bdd82	0.038053043
199	0xbd52b313	-0.05144031
200	0x3c83305a	0.016014267
201	0x3d4c5175	0.04988237
202	0xbd4b714c	-0.049668595
203	0x3d0aec43	0.033916723
204	0xbbf89ae2	-0.007586823
205	0x3c856a7d	0.01628613
206	0xbc6f05c7	-0.01458878
207	0x3c3310ba	0.010929281
208	0xbd3b7510	-0.045765936
209	0xbd47fcd8	-0.048825115
210	0xbc9c5bdd	-0.019086773
211	0xbb41f29a	-0.0029594065
212	0xbd18115c	-0.03712593
213	0x3be7741c	0.007063402
214	0x3d1efb27	0.038813736
215	0x3d0a59f6	0.0337772
216	0x3d5f6a76	0.05454489
217	0xbcd42f91	-0.025901588
218	0xbd2ff011	-0.042953555
219	0xbd1577a0	-0.036491036
220	0xbd1b5b89	-0.03792909
221	0x3cb44f1d	0.02201038
222	0x3bbf01a1	0.0058290516
223	0xbbe1f7f0	-0.0068960115
224	0xbd1943af	-0.037418064
225	0x3c85e38b	0.016343853
226	0x3d235de9	0.03988448
227	0xbc56ac10	-0.013102546
228	0x3c4c56f0	0.012471899
229	0xbd23d243	-0.039995443
230	0xbd540c48	-0.051769525
231	0x3d1710e7	0.036881354
232	0x3cf24403	0.029573446
233	0x3d0480e9	0.0323495
234	0x3cf75f2f	0.030196754
235	0x3c05c590	0.008164778
236	0x3c7d3e38	0.015456729
237	0x3d31881f	0.043342706
238	0xbcfdcf2f	-0.030982582
239	0xbad9b2d2	-0.0016609079
240	0x3b0820b8	0.0020771455
241	0xbbe9d68e	-0.0071361726
242	0xbd0ce44c	-0.03439741
243	0xba292823	-0.0006452819
244	0x3d15bb2b	0.03655545
245	0xbc4b3b9a	-0.012404347
246	0x3b6d003b	0.0036163467
247	0x3d2c0c6a	0.042004026
248	0xba9428e7	-0.0011303694
249	0x3d2b57a2	0.04183162
250	0x3c32e7d9	0.010919535
251	0xbcd67baa	-0.026182014
252	0xbbb3e2dd	-0.0054896907
253	0x3ce67a78	0.02813457
254	0x3cd1ce2c	0.025611006
255	0x3d101ced	0.035183836
