chkpts/sentence-similarity/run-93-weight-aux-0.75-lr-0.0006.pth (torch, 134965 bytes, 3 tensors)

0.weight f4 [256, 128]
000000 5c e9 96 bd 57 c3 e6 3b a8 cc a0 bc 00 50 44 bd
       -0.073687285 0.0070423293 -0.019628838 -0.047927856
000010 7f c4 7d 3d d4 3b f0 3b 32 a4 6a bd 6a 4d 19 3d
       0.06195497 0.007331351 -0.057285495 0.037427343
000020 e7 51 a5 3c 86 76 b4 3a 65 58 01 bc 3a e9 f7 3c
       0.020180656 0.0013768233 -0.00789461 0.030262578
000030 be b3 0d bc b2 04 1e 3d 17 fd 24 3d 6f d1 ba bc
       -0.008648811 0.038578697 0.040280428 -0.022804944
000040 46 56 c4 bc d0 29 8f bd fd 22 88 3d ed 9a a2 3d
       -0.02396692 -0.06990397 0.066472985 0.07939706
000050 d4 15 10 bd 50 b9 3c 3d 3d d5 f8 bc 36 44 97 3c
       -0.035177067 0.046075165 -0.030375117 0.018465143
000060 1e 14 42 3d ba 3d 2c 3c 27 b0 82 3d 2a 01 8f bd
       0.047382466 0.010512764 0.06381255 -0.06982644
000070 5d f1 2f 3d f6 11 57 3d a5 ae ab bd 5b 97 a5 bd
       0.04295479 0.052507363 -0.0838292 -0.080855094
000080 66 97 a1 3d fc b2 83 bd e5 82 65 3c ad e2 8b bc
       0.07890205 -0.06430623 0.0140082585 -0.01707586
000090 1b 57 e5 3c a6 1d b4 3d 7c 67 81 3d 6e e9 47 bd
       0.027995637 0.087947175 0.06318566 -0.0488066
0000a0 3c fc 7c bc b4 56 79 bc 61 a1 82 3d 31 f5 ba 3c
       -0.015440997 -0.015218426 0.06378437 0.022821994
0000b0 31 78 2b bc 5d 37 a9 3d 27 36 b0 bd da 26 d6 3c
       -0.010465668 0.08262513 -0.08604079 0.026141573
0000c0 12 63 a8 3d 0c da 9e 3c ac f9 7d bd ab 9a 99 bd
       0.08222021 0.019391082 -0.062005684 -0.07500204
0000d0 d9 43 9d 3d 9d cf f5 3c c2 e1 ea 3c a7 3b 37 3d
       0.076789565 0.030006224 0.028672103 0.044734623
0000e0 97 c9 af 3c ee 6a 17 bd e9 36 9c bd a7 07 6f ba
       0.02145843 -0.03696721 -0.07627661 -0.0009118267
0000f0 f4 d1 8a 3c 3e dc 36 bd a2 8a 8a bd df 3f 3e 3d
       0.016945817 -0.044643633 -0.06764723 0.04644763
000100 ba 2b b6 3c ce fa 2f bc 14 17 09 3b df 0f ab 3d
       0.022237647 -0.010740949 0.0020918297 0.083526365
000110 3f 35 56 3d c1 9c c7 3c 17 22 53 3d f5 bc cd 3c
       0.052296873 0.024366738 0.051546182 0.025114516
000120 33 fe 77 bd 4a 4f 3a bd 45 eb bc 3c 8d 9e 8c bd
       -0.060545158 -0.045485772 0.023061404 -0.06866179
000130 2c 3d 18 3c 40 44 ad bb 63 98 8e bb 91 d1 0a bd
       0.009291928 -0.005287677 -0.004351662 -0.033891264
000140 e1 12 f3 3c 4e d2 6f 3d b0 d1 8d bd ab ee b4 3c
       0.029672088 0.05855017 -0.0692476 0.022086462
000150 19 28 4b bd 21 d5 0a bd 67 03 8d 3d 58 8f b0 ba
       -0.049598787 -0.03389466 0.068854146 -0.0013470454
000160 48 23 51 bd a7 53 68 3d 68 45 96 3d 27 7a 55 bc
       -0.051059037 0.056720402 0.07337457 -0.013029612
000170 f3 a1 b1 bd b6 e5 f5 bc 28 56 43 3d 05 9b b2 bd
       -0.086734675 -0.030016761 0.047689587 -0.08720974
000180 c9 7b 66 bd 44 f4 5e bd 92 1e 18 3d ae d6 a6 3d
       -0.056270394 -0.05443217 0.03713853 0.08146416
000190 b6 b5 32 bd 1b 0a 21 bd b2 10 6d 3d 7d 10 c5 bc
       -0.043630324 -0.039316278 0.05787725 -0.024055714
0001a0 af cb 2a 3d 9a b6 86 bd 50 b3 76 bd dd bf b0 bb
       0.041698154 -0.06577797 -0.0602296 -0.0053939656
0001b0 16 f1 9e bb c8 f8 08 bd bc 1f d1 3c c0 e1 b8 3d
       -0.004850517 -0.03344038 0.025527827 0.090274334
0001c0 57 45 b3 3d 3a ac 95 3d 30 d2 78 bd ca ea 04 bc
       0.0875346 0.0730824 -0.060747325 -0.008112619
0001d0 72 d1 61 3c 2e 3d aa 3b 71 1a 93 3d 1b f8 47 bc
       0.013782846 0.0051952815 0.07182778 -0.012205149
0001e0 38 95 8f bd 60 0c 14 bc b2 85 bb bb 4b fa 56 3d
       -0.07010883 -0.009036154 -0.005722725 0.05248479
0001f0 83 61 cf bc 8b 28 8f bd 14 6f 8c 3d 3f b4 77 bd
       -0.025315052 -0.06990155 0.06857124 -0.06047463
000200 49 0d 91 bd 53 2b 95 3d 66 e7 e3 bc 62 c9 17 bd
       -0.07082612 0.07283654 -0.0278203 -0.037057288
000210 e0 d1 61 3c 44 68 98 bc a8 32 45 bc e0 92 94 3c
       0.013782948 -0.018604405 -0.012036003 0.018136442
000220 f4 6e 82 bc 5f cd 2a bd 89 4c 9d 3d 57 a8 9f bd
       -0.015922047 -0.041699763 0.076806135 -0.0779578
000230 00 16 6c 3c 7a b6 4d 3d 00 b0 65 3a 89 38 86 3d
       0.014409542 0.05022285 0.0008761883 0.06553752
000240 2d 87 9f 3d 96 f5 8a bd 70 78 ea 3c 9f 5c b1 3d
       0.077894546 -0.06785123 0.028621882 0.08660244
000250 f8 ba 64 bd 78 15 3f bc 40 aa 12 3c 7b db 39 bd
       -0.05584237 -0.011662833 0.008951724 -0.04537533
000260 25 59 98 3d 69 b2 1a bd 00 a1 b8 bc 72 1a a6 bd
       0.07438878 -0.0377678 -0.022537708 -0.08110513
000270 1e 05 25 3d b0 ad 0b bc e1 ca 64 bd ae 01 00 bd
       0.040288083 -0.008525297 -0.055857543 -0.031251602
000280 65 88 96 3d e0 eb 06 3c 70 3f 68 bd c7 36 80 3d
       0.07350234 0.008234948 -0.056701124 0.06260448
000290 29 ab 89 3d a8 3d e7 bc f0 6a b3 bd 46 c3 70 3d
       0.06722099 -0.028227642 -0.08760631 0.058779977
0002a0 37 04 58 bd 68 7e 8e 3c 58 9f 02 3c a8 45 0a bd
       -0.052738395 0.01739426 0.007972561 -0.033757836
0002b0 58 a7 b2 bd d0 36 bc 3b b0 13 ef 3c 98 3a 94 bc
       -0.087233245 0.005743839 0.029184192 -0.018094346
0002c0 a1 a1 ab 3d d3 ba 30 bd 5c e3 ad 3c 3e 5b 43 3d
       0.08380438 -0.04314692 0.021226577 0.047694437
0002d0 c0 1c e3 3c cc 67 18 bd 90 79 20 3c be b6 47 3d
       0.02772367 -0.037208363 0.009794608 0.04875826
0002e0 a1 90 9e 3d fa 24 2d bd 96 78 e7 bc 78 73 de 3c
       0.077424295 -0.04227159 -0.028255742 0.02715467
0002f0 af f3 80 bd bc 5b 92 bc 20 95 02 3c 4a 78 81 bd
       -0.06296479 -0.017866008 0.0079701245 -0.063217714
000300 d0 e5 7a bc 0a b2 13 bd 50 9f 4f 3c 38 89 01 3d
       -0.015313581 -0.036058463 0.01267226 0.031625003
000310 13 9c a1 3d 50 fa 84 bd 2d e8 9d 3d 00 f9 e2 3c
       0.07891097 -0.06493056 0.077103 0.027706623
000320 c0 14 92 3c 4a 96 7b 3d cb 5c 66 bd d5 7d b0 3d
       0.01783216 0.061422624 -0.056240838 0.086177506
000330 df e5 85 3d 50 3e 09 3d be d6 ef bc c2 4c 97 bd
       0.06537985 0.03350669 -0.029277202 -0.07387687
000340 6c 93 84 bd 9f 1e b0 3d 5a 72 48 bd 80 bf 77 bc
       -0.06473431 0.085995905 -0.04893718 -0.015121341
000350 43 43 a2 bd 3b a4 94 3d bb 43 aa 3d 6c 08 c4 bc
       -0.079229854 0.07257887 0.083137 -0.023929797
000360 a0 eb d2 3b 40 4c 4c 3b a2 b7 05 3d 14 59 b1 bd
       0.00643678 0.0031173378 0.03264583 -0.086595684
000370 e2 7a 25 3d 02 43 6d 3d f9 9a 9a 3d 24 a1 48 bd
       0.040400393 0.05792523 0.0754909 -0.0489818
000380 01 33 8d 3d 67 e9 ad bd 80 fe 87 3a 3e c9 4a 3d
       0.06894494 -0.084917836 0.001037553 0.049508326
000390 f6 fe 26 3d 6e ee 86 bd 28 56 02 bc 22 85 a1 bd
       0.040770493 -0.065884456 -0.007955112 -0.07886721
0003a0 c6 d0 29 3d 90 d2 e7 3b 00 28 69 38 83 8a 8e 3d
       0.041458867 0.0070746616 5.5588782e-05 0.06960013
0003b0 44 ae 84 bd be d1 2d bd 80 45 60 3a 9c ec 71 bd
       -0.06478551 -0.042436354 0.0008555278 -0.05906354
0003c0 32 b3 6c bd 09 fe b0 3d 8e e1 20 3d 8f 67 aa bd
       -0.05778808 0.08642203 0.039277606 -0.083205335
0003d0 e2 51 96 bd 22 6a 15 bd ca 12 5f 3d c7 c4 9d 3d
       -0.07339837 -0.03647817 0.054461278 0.07703548
0003e0 dc 13 ed 3c f8 96 97 3c 68 2d 3b bc 7f c6 89 3d
       0.028940134 0.018504605 -0.0114244 0.06727313
0003f0 1a c5 05 bd 07 73 13 bd 78 ed ad bd b4 50 81 3c
       -0.032658674 -0.03599837 -0.08492559 0.015785553

0.bias f4 [256]
000000 b6 88 d8 3b 32 9e 06 3d 84 54 97 3b 5c 19 8c 3d
       0.006608094 0.03286571 0.0046182293 0.068407744
000010 98 5b 85 3d 0d 72 a2 bc 00 0f 6c bd 16 d7 88 3d
       0.06511611 -0.019829774 -0.057631493 0.066816494
000020 04 e6 c2 bc f5 3f 99 bd b5 8a 9f bd eb 28 bb bd
       -0.02379132 -0.07482902 -0.07790128 -0.09138664
000030 2c f5 c2 bc d5 ac 13 bd e3 cf af bd 3e e3 ae bc
       -0.023798548 -0.036053497 -0.08584573 -0.021348592
000040 87 38 8e bd f4 6e 16 bd dd 9f 2a 3c c5 a6 08 3d
       -0.069443755 -0.036726907 0.010414091 0.03336217
000050 e4 f5 87 3c dc 08 6c 3d 73 50 68 3c 7c fb bf bd
       0.016596742 0.057625636 0.014179337 -0.09374139
000060 17 1f 24 3c 01 08 b1 3d aa 2a 13 bd 50 1a 4b bd
       0.010017178 0.08644105 -0.03592936 -0.04958564
000070 51 89 58 bd b4 bf 46 bc a5 e3 a1 3c 11 72 ce 3c
       -0.05286533 -0.0121306665 0.01976187 0.025200875
000080 77 ac 03 3c 77 2b 3c 3d a7 39 35 3d 7e fa 0b bd
       0.008036724 0.04593989 0.044244435 -0.034174435
000090 39 a8 97 3d b0 16 90 bd ed 5b 62 3a 93 05 9a 3d
       0.07405133 -0.07035577 0.0008634914 0.075205944
0000a0 99 d4 37 3d a2 6b 5b 3d cd 4d 58 bc b3 6c ff bc
       0.044880483 0.053569444 -0.013202143 -0.031179762
0000b0 34 51 4a 3d 51 74 ae 3d a7 b2 c6 bd 17 55 1a 3b
       0.049393848 0.08518279 -0.09702044 0.0023549253
0000c0 05 2b af 3c cf 07 ee bb ee 4e df bc 93 b9 a2 3d
       0.021382818 -0.0072641145 -0.027259316 0.07945552
0000d0 bc 10 95 3d 1e 36 79 3d 2b 03 96 bd 1a 9a 6f 3d
       0.072785825 0.060842626 -0.07324823 0.058496572
0000e0 95 84 4d 3d e0 35 65 3c 80 01 b5 3c 49 f8 a8 bc
       0.05017527 0.013989896 0.022095442 -0.020626204
0000f0 23 53 35 bd 2d 50 8d bb 26 02 d2 bb d6 c1 a2 3d
       -0.04426874 -0.004312536 -0.0064089475 0.079471275
000100 76 ef 40 3d 17 f4 b5 3d 2c 5e ac 3d 55 46 6c bd
       0.047103368 0.08884447 0.08416399 -0.05768426
000110 4b 52 24 3d d0 c7 fe 3c b8 a3 4c bd 08 b5 99 bd
       0.040117543 0.031101137 -0.049960822 -0.07505232
000120 99 9c 92 3d fc d6 57 bc f1 a4 dc bc 32 16 ed 3b
       0.07158775 -0.013173815 -0.026934119 0.007235312
000130 b2 04 70 bd ad 30 8a bd cf 8d 76 3d 6c f8 65 3d
       -0.058598228 -0.067475654 0.060193833 0.056145117
000140 6a 26 7f 3d 13 48 89 3d 59 a2 aa 3d 99 e2 47 3c
       0.062292494 0.067032 0.083317466 0.012200021
000150 04 a1 27 3d 57 fa b0 bc 70 40 c5 bb 2a a0 96 3d
       0.04092504 -0.021603746 -0.0060196444 0.073547676
000160 b7 cb 85 bd 54 3a 17 bb 01 3e 85 bc c9 46 96 3d
       -0.06532996 -0.0023075538 -0.016264917 0.0733772
000170 d5 eb 9f 3d 52 5d 93 3d b0 82 cf 3c a0 84 70 3d
       0.07808653 0.07195534 0.025330871 0.05872023
000180 9e 57 5c 3d 8f 27 94 bd 8b 4a 1f 3d f2 de f4 3c
       0.053794496 -0.07234108 0.03888945 0.029891465
000190 ae 52 27 bc e7 e2 2d bd f8 73 2c 3d 2f fa 12 3d
       -0.0102125835 -0.04245272 0.042102784 0.035883125
0001a0 fe 78 a7 bd 08 08 fb 3c b2 8c 8c bc d9 b4 2f bc
       -0.08177374 0.030643478 -0.017156933 -0.01072427
0001b0 1f 99 21 bd 63 33 98 bd 3c 02 ac bd 34 43 a6 3d
       -0.03945267 -0.07431676 -0.08398864 0.08118287
0001c0 05 46 a6 3b 50 34 0a 3d ff ff 1d bc d6 3b 45 bd
       0.005074265 0.033741295 -0.009643554 -0.048152767
0001d0 92 5a 7a 3b 86 08 80 3d eb e6 5c bd 39 31 b4 bd
       0.0038200957 0.06251626 -0.053931158 -0.08798451
0001e0 bf a4 ae bd 0d d2 79 bd a8 f8 42 bd 40 19 9a bd
       -0.085275166 -0.060991336 -0.04760042 -0.07524347
0001f0 df 0f 9b bd 94 b2 8b bd 63 9d 5c bb 9a a3 a0 3d
       -0.075713865 -0.068211704 -0.0033663146 0.078437045
000200 2a 0c 04 3c 2b 08 88 3d e3 fa 6f bd dc 85 2a 3c
       0.008059541 0.06642183 -0.058588874 0.010407891
000210 3c 47 96 3d 9e a6 59 bd c5 ea f6 3c 0c b5 a2 3d
       0.07337806 -0.053137414 0.030141244 0.07944688
000220 97 f3 81 bc 96 d3 96 bc 5d da 90 bd 0b 1d a3 3d
       -0.015863223 -0.018411439 -0.070728995 0.07964524
000230 6e e9 0a bc 93 21 83 3d c7 90 76 bd 4d 83 90 3d
       -0.008478506 0.06402888 -0.060196664 0.07056294
000240 de 11 4a bd 94 b2 a3 bc 94 e0 a4 3c 02 e0 a3 bd
       -0.049333446 -0.019982614 0.020126618 -0.080017105
000250 b7 41 65 3d 0a cd 95 3d 0f b6 2b 3d 00 d7 74 bc
       0.055970874 0.07314499 0.04192167 -0.014943838
000260 7c c6 a4 bd 93 e7 57 bd 6c 9c db 3c e3 ad 3a bd
       -0.080456704 -0.05271108 0.026807986 -0.045575988
000270 a6 3f 34 bc 41 ef 19 bd 9d 88 9c bd 24 08 8a 3c
       -0.011001503 -0.037581686 -0.076432444 0.016849585
000280 ec 8a ec 3c 3f 5b ac bd 33 7f a0 bd fd 61 a5 bd
       0.028874837 -0.08415841 -0.07836761 -0.080753304
000290 fa 4e 6f bd 40 56 86 bd e3 9b 36 bd c8 ac 17 3d
       -0.058424927 -0.0655942 -0.04458226 0.03703001
0002a0 e6 1a 40 3d df 8d b2 3d 1d 9c 57 3d e7 e4 4c 3d
       0.046900652 0.08718466 0.052639116 0.050022986
0002b0 60 d7 5c bd a1 4a 88 3d 92 c4 11 bd d7 ec 08 bd
       -0.053916335 0.06654859 -0.035587855 -0.033428993
0002c0 bb 83 b3 bd ca 5b a3 bc 17 95 8a bb da 95 0c bd
       -0.0876536 -0.01994123 -0.0042291987 -0.034322597
0002d0 83 2b 8c bd b0 71 4c 3d 70 a2 49 3c cf 30 c7 3c
       -0.06844237 0.04991311 0.0123067945 0.024315266
0002e0 b6 8d ac 3c f9 cd fe 3c 6e e8 7e 3d d6 2c a6 bd
       0.021063667 0.031104075 0.06223338 -0.081140205
0002f0 e3 00 ca bc 53 da d1 bc 66 89 9b 3d 8f 2c 84 bc
       -0.024658626 -0.0256168 0.07594566 -0.016134528
000300 f7 94 b5 bd f0 af d5 3a 0b 37 2f 3d 75 bb 7d 3d
       -0.088663034 0.0016303044 0.042777102 0.06194635
000310 a9 91 59 ba 38 e9 13 bc 3e de 55 bd e4 85 69 bd
       -0.0008299598 -0.009027772 -0.0522139 -0.057012454
000320 9e f2 a3 3c c1 1f ed 3c 44 23 02 bd fd 06 1e 3d
       0.02001315 0.028945806 -0.031771913 0.038580883
000330 10 a6 42 3b b1 71 94 bd 8f 86 55 bc 63 15 52 3d
       0.0029701032 -0.072482474 -0.01303257 0.051289927
000340 5e 3d 23 bd 02 7b 90 bd 29 21 15 3a ef b3 a1 3d
       -0.039853446 -0.07054712 0.000568884 0.07895648
000350 a2 66 b3 bc 2b 33 49 bc 8b 30 57 3d 1a 06 51 3d
       -0.021899525 -0.012280266 0.05253653 0.05103121
000360 22 06 2a bd ea cc 2b 3d 2c b2 8e bd 3d f1 84 3d
       -0.041509755 0.04194347 -0.06967577 0.06491325
000370 a4 90 c0 3c fc ed e8 3c 51 91 a0 bd ca 2a 45 3d
       0.02350647 0.028433792 -0.07840217 0.04813651
000380 11 52 a0 3d 2f 52 15 bc 91 59 a7 3d 63 a9 98 bd
       0.07828153 -0.009113832 0.0817138 -0.07454183
000390 6f 58 af bd 0a 37 21 bd 28 0c f3 3c 5a 4a 29 3d
       -0.08561789 -0.03935913 0.029668882 0.041330673
0003a0 1e 4f 80 bd 2a 14 21 bb 2e 74 a2 3b 06 b3 3f bd
       -0.062650904 -0.002457867 0.0049576974 -0.04680159
0003b0 03 3f 99 bd cd 97 b1 bd 07 01 a0 bb 1f 3d 8e 3d
       -0.07482722 -0.08671532 -0.004882935 0.06945252
0003c0 f6 0e 1f bd e7 11 a9 3d 51 47 5c bd 45 2d 51 3c
       -0.038832627 0.08255368 -0.05377895 0.012767141
0003d0 ff 7a df bc bd be 49 bd b2 a1 71 bd c7 a5 4f 3d
       -0.027280329 -0.049254168 -0.058992095 0.050695207
0003e0 dc b2 14 bd 6b 52 93 3c 96 bb ec 3c e2 24 f2 bc
       -0.036303386 0.017983636 0.028898042 -0.029558603
0003f0 4a cc 43 ba de 5c 40 3d d3 d8 1e bd c7 89 e8 bc
       -0.0007469101 0.046963565 -0.038781 -0.02838601

2.weight f4 [1, 256]
000000 37 a1 1b bd 9a b9 11 bd a6 fc 7e bd 75 97 61 3d
       -0.037995543 -0.035577394 -0.062252663 0.05507608
000010 d7 e7 db bc 2b 61 a0 bc 15 c6 00 bd 45 ea 9b 3b
       -0.026843948 -0.019577583 -0.031438906 0.0047581517
000020 8e 5e f5 bb 30 d6 7b 3d 60 94 08 3d f5 6b 04 bd
       -0.0074880784 0.061483562 0.033344626 -0.03232952
000030 48 61 b0 3c be 51 5d 3d 30 ce 6e 3c 23 37 47 bd
       0.021530762 0.054033034 0.014575526 -0.048636567
000040 7d ec 3c bd 58 f7 4a 3c a3 62 7b bc 9d f2 ed 3c
       -0.04612397 0.012388073 -0.015343341 0.029046351
000050 55 94 67 3c 81 2b 13 bd e7 54 22 3b 7f 1a bd bb
       0.014134486 -0.03593016 0.0024769844 -0.005770981
000060 6f b3 39 3d ef 0d 01 bc e6 70 1b bd 72 b2 5d bc
       0.045337137 -0.007876857 -0.037949465 -0.013531314
000070 0c c1 3c bd 76 64 80 bc 7d 5d d4 3c 86 46 ce bc
       -0.04608254 -0.015672904 0.025923485 -0.025180113
000080 5a 9e a3 3b 23 d0 22 bc e0 68 8e bb 7b 38 ec bc
       0.004993242 -0.009937319 -0.004345998 -0.028835526
000090 fe 00 81 bc c4 fc 14 3c 5c 7c 41 3b 7c 83 d9 bc
       -0.015747543 0.009093467 0.0029523587 -0.026551954
0000a0 24 5f 17 bd 06 1e 0f 3d a8 1f 9c bc 84 73 6a bc
       -0.036955968 0.034940742 -0.019058064 -0.014309768
0000b0 8a a9 c7 3a 4d ab 3b 3d f4 62 14 bc 15 c3 3d 3d
       0.0015233022 0.045817662 -0.009056795 0.046328623
0000c0 7e cf 4f 3c 30 64 5d bd 5c 54 72 3d 61 1e 2e bc
       0.012683747 -0.054050624 0.059162483 -0.01062736
0000d0 7c 99 59 bb c8 4b 81 3d f1 f7 b7 bc 60 80 b0 3b
       -0.0033203056 0.06313282 -0.022457095 0.0053863972
0000e0 47 d7 2c bd 2d fe 6c bc b0 7d 16 bc c4 4a 5c bc
       -0.042197492 -0.014464897 -0.00918524 -0.01344556
0000f0 ee e8 c1 bb 88 39 b9 bb a6 80 7a 3a 21 55 50 bd
       -0.00591766 -0.00565261 0.0009555913 -0.050862435
000100 e9 69 5f 3d 59 b9 68 3d c3 43 32 3d 9a f0 9d 3c
       0.054544363 0.056817386 0.043521654 0.019279767
000110 ed 8a c7 bc b0 ec 5b bc 00 78 2a 39 70 5b 6e bc
       -0.024358237 -0.01342313 0.00016257167 -0.014548168
000120 ba cd 5e bd 47 76 56 3c b1 2f 5e 3d e0 a7 47 3d
       -0.054395415 0.013089723 0.0542447 0.048744082
000130 90 52 0d 3d 9c c8 a8 bc 16 bd 48 3d 59 2c 35 3d
       0.034502566 -0.02060347 0.04900845 0.044231746
000140 c6 aa 40 3d a9 a0 17 bd 62 05 3a bb 7c 93 96 bc
       0.047037862 -0.03701845 -0.0028384556 -0.018380873
000150 dc 3a 5f 3d 5e 50 8f bc 4c a9 20 3d 77 ff 4d 3d
       0.054499492 -0.017494377 0.039223954 0.05029246
000160 a1 18 67 bd 6b b2 38 bd 94 b5 8f 3c 29 c6 62 3c
       -0.056419972 -0.045092028 0.017542638 0.01384119
000170 70 d4 f1 bc cb fd f3 bc 24 1f 96 3c df 0b bb 3b
       -0.029520243 -0.029784104 0.018325396 0.0057082023
000180 cb bd 0f 3d 64 7e ba bc a7 31 b5 3b d4 67 a5 bc
       0.03509311 -0.022765346 0.0055296007 -0.02019111
000190 23 95 8e bc 94 8b f1 3c 54 01 c1 3c e0 71 10 bd
       -0.017405098 0.029485501 0.023560204 -0.03526485
0001a0 56 11 e1 3c e9 4d 8f 3c 48 46 39 3d ce a4 be 3c
       0.027474087 0.017493205 0.04523304 0.023271944
0001b0 b6 86 aa bc af f2 21 3d 04 69 25 3b 22 65 61 3b
       -0.020816188 0.03953808 0.0025239596 0.0034392555
0001c0 84 90 77 bc b6 cc e2 3c 45 99 47 3c 87 1a 54 3d
       -0.015110139 0.027685504 0.012182538 0.05178311
0001d0 97 0a 49 bd 74 0a 67 3c 66 25 6f 3d 9c 3d 41 3d
       -0.049082365 0.014101613 0.058385275 0.047177896
0001e0 11 6d 09 3d e0 27 fc bc 3e b1 28 3d 3a f6 90 3c
       0.03355128 -0.030780733 0.041184656 0.017695535
0001f0 5f 16 3f 3d 5b 29 0c 3d 0c 5f 3a 3d 70 d6 de bc
       0.046652194 0.034219127 0.0455008 -0.027201861
000200 3b 85 63 bc b7 97 27 3d 46 d7 6e 3d e6 0b 45 3d
       -0.013886745 0.04091617 0.05831077 0.04810705
000210 58 29 53 bd 72 c7 ad 3a 99 7b 3a 3d 6b 7c 42 bd
       -0.0515531 0.0013258292 0.04552803 -0.047481935
000220 8d 5a 95 3c 1f b5 31 3d 7b 4e c9 3c bb 17 23 bd
       0.018231655 0.04338562 0.024573555 -0.039817553
000230 99 59 1b 3c 4c 26 5e 3d 5d cf 0f 3d c6 fa bb bc
       0.009481811 0.05423574 0.035109866 -0.022946727
000240 08 ad be 3c 17 be e1 bc cd 5d 74 3b 7a cb d1 3c
       0.023275867 -0.027556462 0.0037287355 0.02560972
000250 cf 8b 5b 3d c7 64 ae 3c 4c 8a 30 3c 87 03 cf bc
       0.05360013 0.021288289 0.01077516 -0.025270237
000260 0d cb 48 bb 2f 12 c7 3c 5d 80 1e 3d 40 f6 d0 3b
       -0.0030638606 0.024300663 0.038696636 0.0063770115
000270 c8 1e 2c bd c5 fa 5c 3d ba 25 83 3c e1 bc c0 3c
       -0.042021543 0.05395009 0.0160092 0.023527564
000280 50 5a c1 3c a9 94 36 bd da 55 c6 3b a5 35 70 3d
       0.023602635 -0.044575367 0.006052715 0.05864491
000290 db 3f be bb 8f 8e 12 bc 45 bf 78 3b 34 00 32 bd
       -0.005805952 -0.008945121 0.0037955802 -0.043457225
0002a0 8b a5 54 bd a6 ca 86 bc a2 44 a9 bb e5 28 fd 3a
       -0.051915687 -0.016454052 -0.0051656524 0.0019314556
0002b0 46 7c 2f 3c d4 0e fa bc 78 dc 21 3b d7 07 1a bd
       0.010710781 -0.030524649 0.002469806 -0.037605133
0002c0 15 16 33 bc b9 3c f7 3c 07 74 3d 3c 2b 23 16 3d
       -0.010930558 0.030180322 0.011563308 0.036654633
0002d0 8c d7 73 ba 05 11 fc bc 00 bf 61 bb 6b ac 71 bc
       -0.00093018333 -0.030769834 -0.003444612 -0.01475058
0002e0 4c 0f 8a bb e8 d6 58 bc a8 3a 75 3c 6d d8 65 3c
       -0.0042132493 -0.013234831 0.014967598 0.014028651
0002f0 1a ec 4c bd 50 67 00 3b ec 90 08 bd 68 89 30 3d
       -0.05002985 0.001959283 -0.033341333 0.04309979
000300 56 1f 97 bc f0 df 3d 3d 38 2b d6 bc b3 a0 6e bc
       -0.01844756 0.04635614 -0.026143655 -0.014564681
000310 a7 66 57 3d 00 37 fc 3c f0 d8 2f 3d bf ae 7e bd
       0.05258813 0.030787945 0.042931497 -0.06217837
000320 07 0a 8c 3c 9a 74 50 3d a2 09 5b bd 50 7b 0b 3d
       0.017094625 0.05089245 -0.053475983 0.034053147
000330 6f 2a 22 bc 85 a0 85 3c 44 0a 6f bc 4c 52 b3 3b
       -0.009897812 0.016311893 -0.01458985 0.005472457
000340 74 9d 44 bd f9 8c 67 bd fd 4c 25 bd b4 e0 f7 bb
       -0.04800172 -0.056530926 -0.040356625 -0.0075646285
000350 4b 19 2c bd 0f 8e 29 3c 28 38 57 3d 0b 46 17 3d
       -0.04201631 0.010348811 0.05254379 0.036932033
000360 e2 55 6d 3d 70 3f 59 bc 4b ac 4b bd 54 e5 3a bd
       0.057943232 -0.013259754 -0.04972486 -0.04562886
000370 7c c9 40 bd 04 ed 11 3d b1 ca cd bb 78 a6 72 bc
       -0.04706715 0.035626426 -0.006280266 -0.014810197
000380 58 13 0f bd 51 23 34 3d 6c 87 32 3d cb ad 82 bc
       -0.034930557 0.043978993 0.04358618 -0.015952012
000390 56 9f 9a 3c 57 ab 36 bd 7e 03 70 bd 15 30 15 3d
       0.018874805 -0.044596996 -0.05859708 0.036422808
0003a0 4a cb 07 3d 61 f6 0e 3d 09 ac 06 3d 58 8e 0b 3c
       0.033152856 0.034902934 0.03287891 0.008517824
0003b0 b9 87 b6 3c c5 5b 26 3d 98 94 6f bd d7 d2 36 38
       0.022281514 0.040614862 -0.05849132 4.358854e-05
0003c0 ec ac 82 bb 6c 06 41 bc 10 07 3e bd df c7 7b 3c
       -0.003987899 -0.011781316 -0.046393454 0.015367477
0003d0 ef e4 18 3d b7 67 77 bc 1d d9 7c 39 14 e1 5e 3d
       0.037327703 -0.015100411 0.00024113474 0.05441387
0003e0 5b cb 14 3a 4b 76 6d 3d 70 ec ab 3c 3f f4 f9 bc
       0.0005676054 0.05797414 0.020986766 -0.030511973
0003f0 17 5e ee bb 6c 27 0e 3d 82 50 e1 3c f5 96 10 3d
       -0.0072744 0.034705564 0.02750421 0.035300214
