chkpts/sentence-similarity/run-65-weight-aux-0.5-lr-6e-05.pth (torch, 1731 bytes, 1 tensors)

weight f4 [1, 128]
0	0x3d189bd0	0.03725797
1	0xbc470dc9	-0.012149283
2	0x3c621121	0.013798029
3	0xbd1ef286	-0.038805507
4	0xbd5f05f9	-0.054449055
5	0xbcb23ebc	-0.02175843
6	0x3d79005c	0.06079136
7	0x3c1b3217	0.009472392
8	0x3d61c5a4	0.055120125
9	0x3ad64c44	0.0016349633
10	0xbd9fc87a	-0.0780191
11	0x3d17020c	0.036867186
12	0xbd75ab96	-0.05997809
13	0xbc752d8f	-0.014964475
14	0xbda0d85e	-0.07853769
15	0xbd807089	-0.062714644
16	0x3d8e7156	0.06955211
17	0xbd8e069f	-0.069348566
18	0x3da7b088	0.081879675
19	0xbd082508	-0.03323844
20	0x3da5bd80	0.08092785
21	0x3d577bd8	0.05260834
22	0xbcfc11f6	-0.030770283
23	0x3d9c93c2	0.0764537
24	0x3d8374a0	0.06418729
25	0x3d024176	0.03180071
26	0xbabe7d3c	-0.0014533172
27	0xbca520b4	-0.020157196
28	0x3d91bfb0	0.071166396
29	0xbcf06700	-0.02934599
30	0xbd805841	-0.06266833
31	0xbc2b6631	-0.010461376
32	0x3d8ef1c6	0.069797084
33	0x3d43d200	0.047807693
34	0xbd29099b	-0.041268926
35	0x3d87fb36	0.066397116
36	0x3d9face4	0.07796648
37	0xbccd2198	-0.025040433
38	0x3c8f25bc	0.017474048
39	0xbda96f90	-0.08273232
40	0xbd4ec1f7	-0.050477948
41	0xbd1ee609	-0.038793597
42	0x3d116428	0.035495907
43	0xba74b178	-0.0009334306
44	0xba86dec4	-0.0010289778
45	0xbd202275	-0.03909536
46	0x3cd9dd2c	0.02659472
47	0x3cc2d290	0.023782045
48	0xbd7efb95	-0.062251646
49	0xbd2d46ca	-0.042303838
50	0xbb108cbe	-0.0022056545
51	0x3d65a714	0.05606754
52	0x3d65640c	0.056003615
53	0xbd15f018	-0.036605924
54	0x3cf5df8c	0.030013822
55	0xbd91af69	-0.07113535
56	0x3c1f9d19	0.009742045
57	0xbd5a3384	-0.053271785
58	0xbd6eb68d	-0.058279563
59	0x3b9646b1	0.004586064
60	0xbd62320d	-0.055223513
61	0xbb7027a2	-0.0036644717
62	0xbd866285	-0.0656176
63	0x3db3b876	0.087754175
64	0xbd801cae	-0.0625547
65	0x3d805fd4	0.06268278
66	0x3d3a0f38	0.04542467
67	0xbc6034e1	-0.013684482
68	0xbd80da4b	-0.06291636
69	0xbc80ebbc	-0.015737407
70	0x3db0a092	0.08624376
71	0x3d8b1e0a	0.06792839
72	0x3d900d12	0.07033743
73	0x3d469e18	0.048490614
74	0x3c90381c	0.01760488
75	0xbd22a7b4	-0.039710715
76	0xbcab7ae4	-0.020932622
77	0x3c12b389	0.008953937
78	0x3dab0468	0.0835045
79	0x3ae2dd04	0.00173083
80	0x3d2e68c0	0.042580366
81	0xbdae07b2	-0.084975615
82	0xbd7826ee	-0.060584
83	0xbd836d08	-0.064172804
84	0xbd3f21d1	-0.04666311
85	0xbd8631dc	-0.06552479
86	0xbb8b82d1	-0.004257538
87	0x3db0676c	0.08613476
88	0xbb4fce5e	-0.0031708698
89	0x3d0cba1a	0.034357168
90	0x3d8093a6	0.06278162
91	0xbcc8911c	-0.024483256
92	0x3d2e319c	0.04252778
93	0xbd73d4ad	-0.059528995
94	0x3beae4c1	0.007168383
95	0xbb2e3d3e	-0.0026586796
96	0xbb98916f	-0.004656009
97	0xbb8aeb9f	-0.004239514
98	0x3da58306	0.08081631
99	0xbd2b5817	-0.041832056
100	0xbc9aa220	-0.018876135
101	0x3d8d90ce	0.06912385
102	0xbd51157d	-0.051045883
103	0x3cabc224	0.020966597
104	0x3d408884	0.04700519
105	0xbd97931a	-0.07401104
106	0xbd4aa47f	-0.049473282
107	0x3db36c3c	0.087608784
108	0xbdad8696	-0.08472936
109	0x3d9d0934	0.07667771
110	0xbd5c3f44	-0.053771272
111	0xbda7187c	-0.08158967
112	0xbbc4392f	-0.005988262
113	0x3d93d7b2	0.07218875
114	0xbd965073	-0.07339563
115	0x3d663764	0.05620517
116	0xbda1d54c	-0.07902011
117	0x3d9d518e	0.07681571
118	0xbd880cd6	-0.06643073
119	0x3c231081	0.009952665
120	0xbd7f62b0	-0.062349975
121	0xbd15efc2	-0.036605604
122	0xbd99d69f	-0.07511639
123	0xbd349fc6	-0.044097684
124	0x3bd8d741	0.006617457
125	0xbdafa7f6	-0.08576958
126	0xbd56b52b	-0.05241887
127	0x3d4b52a4	0.04963936
